data/models/svm.model_02.npy (npy, 19520 bytes, 1 tensors)

array (column-major) f8 [1, 2430]
0	0x3fdad573eb5522bc	0.4192781255883735
1	0x3fa11b12285153ff	0.033409659787743344
2	0x3f8d4626145157ac	0.014293954367683735
3	0x3fb7c4d9efdba28c	0.09284746271044692
4	0x3f521fd5c2e52081	0.0011062228691845202
5	0x3fcf91eafab51759	0.2466405605466047
6	0xbf864893d5b6b90d	-0.010880618056799319
7	0x3fc15f98057792fb	0.13572979227969725
8	0x3fcaacc5c2d3dd7c	0.20839759839121175
9	0x3fd73e4920f54747	0.3631766149384145
10	0x3fb124845a141634	0.06696345519238706
11	0xbfc5a2e68b3e276f	-0.16903383063282315
12	0x3fc9a08fdd50975c	0.20021246248614488
13	0xbf844bb939802d48	-0.009910056178361729
14	0x3fc32b4e1de02a7f	0.14975906809589287
15	0x3fb07de7077118a6	0.06442111903843059
16	0x3f9ec60debfc7287	0.03005239250988947
17	0x3fc5ad26aeb41709	0.1693466523212737
18	0x3fd0921ccec232b8	0.25891800109165386
19	0xbf9a55fedebefd03	-0.025718672128047803
20	0xbf86367df69d19cd	-0.010846122826149074
21	0x3fc9f825e5b7caa2	0.20288537708946303
22	0xbfc6d54cdd9bd0df	-0.17838440724120283
23	0x3f989f8c6d830255	0.024046129402224576
24	0x3fb031eb58caaa71	0.06326170842900482
25	0x3faeb60a9dac2310	0.05998261618339573
26	0x3fba14e022758227	0.10188103524479485
27	0xbfcf85ce1182b175	-0.24627090315824388
28	0xbf9b4f8945b227e1	-0.02667059409990447
29	0xbfc3e4168b505207	-0.15539819528989104
30	0x3f8281c59d30cd75	0.009036582812859998
31	0x3fa7eeb8080a17fe	0.0467431554616695
32	0x3f9f278f1f9f4fa6	0.03042434340007074
33	0xbfb15210b02922d8	-0.06765846539304776
34	0x3f9c529f2f625176	0.027658927218526107
35	0xbfb3a9bf2314f63b	-0.07680887800685181
36	0x3fab4047fbcd4903	0.05322480152848821
37	0xbfab253b9cdda1ca	-0.05301843919625389
38	0xbfca68898414bd51	-0.20631522130268334
39	0x3fc0ee11e5c158dc	0.1322653171398035
40	0xbfaebc1469ca6d5b	-0.060028684533984765
41	0xbfb165c0c653c1ea	-0.0679588779637538
42	0xbfba4e9090415ad7	-0.10276130220277523
43	0xbfb1bae041d93b21	-0.06925775153761694
44	0xbfba63162f5f9bde	-0.10307444244936856
45	0xbfcad792a32094ad	-0.2097037598152033
46	0xbfc94443ca1e53cd	-0.19739577645364506
47	0xbfb014232dfab26c	-0.06280727264920366
48	0x3fc3e78c85278780	0.1555038118522667
49	0x3f8eff3222540147	0.01513518492947753
50	0xbf92b917d1ea8229	-0.01828419893957026
51	0xbfac9171f644e1db	-0.05579715853895425
52	0x3f97e87f1622c267	0.023347841001568528
53	0xbfb101c573e1bb7f	-0.0664332778849097
54	0xbfc4cb6b9ded5928	-0.16245789729391302
55	0xbfc0b94a8c4175d6	-0.13065463875220357
56	0xbfc5b4f08b84d05f	-0.1695843392604983
57	0xbf9dd70dbe14fcea	-0.029140677191432575
58	0xbfd59bceb387908e	-0.33763473064596716
59	0xbfc42e8322a5bf76	-0.15766944114465858
60	0xbfc08ff119b5827b	-0.12939275508235312
61	0xbfa9a05ddcfb5b85	-0.050051625466657014
62	0xbfb27e5df86efcc2	-0.07224070849678113
63	0xbfb47a6f59838c6c	-0.07999320922276504
64	0xbfb50fd093853957	-0.0822725639493219
65	0x3fa7185719230174	0.045107576197099514
66	0x3fda08e95f164762	0.4067939213356252
67	0x3fb9fdfaaab9d996	0.10153166454424531
68	0xbf90c3c0d8e2086f	-0.016371739613994792
69	0xbfb401d35a54ccd7	-0.07815285640099333
70	0xbfb25c2754fca5db	-0.07171865296245221
71	0xbf9553c3901c07b3	-0.020827346487756148
72	0xbfe0580aeee75b66	-0.5107474008644715
73	0xbfcf9822ee122984	-0.2468303358512679
74	0xbfa7ef8a85a113cc	-0.046749428569945545
75	0x3fc921ff282d0555	0.19634999715530435
76	0x3fd2a41e3448cb62	0.29126696687597164
77	0xbfb2601d658fd30e	-0.07177909593140105
78	0xbfc2c44596e504e2	-0.14661474101925537
79	0xbfc9997d6c8791cd	-0.19999664115233742
80	0xbfc5c5112612aa04	-0.17007650717762612
81	0x3fd379e738404e7c	0.3043153809860326
82	0x3f8d6e9e95fb1637	0.014371146156359689
83	0xbfce333308aac2ca	-0.23593748019404465
84	0x3fc6703b94c1cb48	0.17530007136846337
85	0xbf960ef83cf05c9f	-0.021541479796806425
86	0x3fc246fa5cc74c41	0.14279107599449684
87	0x3fada8e1d4eb80ed	0.057929093590930104
88	0x3f826b22f6ec062b	0.008993409309826358
89	0x3fc3fc7ea6663eba	0.1561430275437397
90	0x3fc9966b08ab8538	0.199902896150016
91	0xbfade59edb2fc430	-0.05839249063127061
92	0xbf95ae653291f5a8	-0.021173077785069744
93	0x3fc7f77a8791fb80	0.18723994846001446
94	0xbfc5e51ed65ef76a	-0.17105470149357
95	0x3fa4614c68b11f25	0.03980482843377179
96	0x3fab2ab50a2a8e61	0.053060204974170196
97	0x3fad2981b939ea01	0.056957296238540074
98	0x3fbc4fdf8f2e23bf	0.1105937695084682
99	0x3fceabc13169e653	0.23961653626229182
100	0x3f8b2943bbab80d3	0.01326229969475926
101	0xbfbaded0a7d3ff40	-0.10496238801351598
102	0x3fc0abb92b6d6fbe	0.13024057980044107
103	0xbfd4f962d6299b20	-0.3277213183813945
104	0x3fc19df401548614	0.13763284745168447
105	0xbf630dec8a06c1fe	-0.0023259754090860776
106	0x3fb2fcedcba423c4	0.07417188855846663
107	0xbfa859eb6540c563	-0.04756103144644432
108	0x3f936044e372a846	0.018921924955670265
109	0xbfb284f0b9a8ccb3	-0.07234100849818752
110	0xbfcfd5f5914eb1ca	-0.24871701808059604
111	0x3fbb73290e76a304	0.10722595790015182
112	0xbfc223d1fde4240b	-0.1417181482031825
113	0xbfb4832d28a3b685	-0.08012659303832421
114	0xbfbc052225c78def	-0.10945332929946237
115	0xbfb3d8aa325b3e6c	-0.07752479295162978
116	0xbfc1fd3af5ae124e	-0.14054047580806855
117	0xbfc8872e71e7bc98	-0.1916254097154464
118	0xbfc9f33e8d988314	-0.20273572839598641
119	0xbfa6575012c681eb	-0.043634893695756315
120	0x3fcaf8108f662763	0.21069533349901368
121	0xbf392b8850986b56	-0.00038406446455645693
122	0xbf9645a95cbbe797	-0.02175011280539926
123	0xbfae615561d809e0	-0.05933634585746339
124	0x3f964d41fdd4b88c	0.021779090039836066
125	0xbfb08525ed94d0a6	-0.06453167963337822
126	0xbfad88fe3ff1e367	-0.05768579989029981
127	0x3fb6b209e91f9f46	0.08865415517322814
128	0x3fd52cfb3cd0002a	0.3308704465744109
129	0x3fdc1d39041a8f84	0.439283613212176
130	0xbfcd571224bd72eb	-0.2292196921724988
131	0xbf9a9d6e3e1c42ae	-0.02599117521373511
132	0xbfc115b6f6a7dfeb	-0.13347518008936218
133	0xbfb30e77dd70d59b	-0.0744395175577978
134	0xbfb2a0923513ccf6	-0.07276262088616989
135	0xbfc48bc3ca1d03e6	-0.16051528328719583
136	0xbfbabefd4597fb49	-0.10447676610054403
137	0x3f829b2b36d9923e	0.009085023509393438
138	0x3fd6cc115ba4c541	0.3562053103406307
139	0xbfa6dc347e3261c3	-0.04464878120888074
140	0xbfa4f558fa7cdc49	-0.0409343534251368
141	0xbfb8636d87ba6b72	-0.09526714862515265
142	0xbfb43977572e4b4f	-0.07900186422766108
143	0xbfaffd191cbc7750	-0.0624778602197994
144	0xbfda5013bbcb5069	-0.4111375173499768
145	0xbfce729f5c483df3	-0.23787300115553442
146	0xbfb2a245268f6a2d	-0.07278854552661392
147	0x3fca97060484a35e	0.20773387165652485
148	0x3fce051419a263ba	0.23452998401333308
149	0xbfb79cbef68f7e3d	-0.0922355033831019
150	0xbfc31fa9b6756794	-0.1494037762557211
151	0xbfc9f56a289a3796	-0.2028019617322882
152	0xbfc664d59b655fec	-0.17495222175307334
153	0xbfd36f50a3d0ce0b	-0.3036691283952854
154	0xbfc1c1ae62543e2e	-0.13872318078254992
155	0xbfbb3aaf61db9ac8	-0.10636421336276236
156	0x3fc4cd97c8760551	0.16252419746528315
157	0x3fd83251e69af41d	0.3780712844853172
158	0x3fb784e1c3089cd7	0.09187136661113314
159	0xbf81cb7303fc2a89	-0.008688829955209048
160	0x3f61533d1b4578e8	0.0021148866164103393
161	0xbf9c4ea465a337aa	-0.027643746093239642
162	0x3fc89c8d8dda9f71	0.19227761675324076
163	0xbfb85aec5bcdc0cc	-0.09513737908651193
164	0xbfab3c6a454342af	-0.05319530578129183
165	0x3fc4e802f1582c8c	0.16333042892833693
166	0xbfc5383825122d72	-0.1657781773577472
167	0x3fa3a483a40d6c05	0.038364518905574164
168	0x3fa5ebd29f53f591	0.04281480975076158
169	0x3fa7ab4a5e1e0607	0.04622871779339382
170	0x3fbd597bc124026c	0.11464665856693451
171	0x3fd0a2a5c0f40792	0.2599272140797605
172	0x3fa093e17adcbae8	0.032378240821676674
173	0xbfbb34b30d51b51e	-0.10627287936377569
174	0x3fc14cf61a890c29	0.1351611737792109
175	0xbfd57211a24a037b	-0.3350872120718617
176	0x3fc43c27e611c288	0.1580858109841936
177	0x3f63122e499ec928	0.0023280052236823896
178	0x3fb4ab4fecd44a11	0.08073901683773267
179	0xbf9e910c52f77f5a	-0.029850189746752555
180	0x3fc657cf2caf2365	0.1745547264274833
181	0x3f788f3243b10732	0.00599593767680222
182	0xbfcd152a50b3aacc	-0.2272084135105018
183	0x3fa866429363452d	0.047655182353660265
184	0xbfd8da99c59ec02b	-0.38834232615318126
185	0x3faf15c55e8ca208	0.06071297434965933
186	0x3fb075edb64b4e39	0.06429944706479142
187	0x3fa80c09669605d9	0.046966832897861806
188	0x3fbe7a27ecfe5a94	0.1190514520261366
189	0xbfc7ca99fd2c081e	-0.18587040769495017
190	0xbfcee9fc3b2c8735	-0.24151566399910399
191	0xbfb2e85bdbe6c2a9	-0.07385801428496087
192	0x3fcbb6ed37cf9204	0.21651997780931265
193	0xbfad681f6481039f	-0.05743501760344504
194	0xbfa07ded66a43b7a	-0.03221074941585918
195	0xbfb0871278b2ecd0	-0.06456103750945208
196	0x3f9110a65d7528a6	0.016665076688959467
197	0xbfb3a100fa2b49cd	-0.07667547328609388
198	0xbf84d1b2067f3fb5	-0.010165587256693568
199	0x3fbcd68aaedec4e5	0.11264864701549333
200	0x3fd83f041984cc85	0.37884619228425037
201	0x3fdc2e3e721648b8	0.44032250539124673
202	0xbfd15b6f98162677	-0.27120580532264377
203	0xbf9f39bc56ebdf02	-0.03049368172193479
204	0xbfc0b7d05aef9972	-0.13060955467444618
205	0xbfb1f98450cba660	-0.07021357510134285
206	0xbfae008568d3d942	-0.05859772591240865
207	0xbfaa740c85a3e625	-0.05166663295126409
208	0x3fb17b64aaa91ed3	0.06828908125418857
209	0x3fd1342330b98429	0.2688072181536563
210	0x3fd1dc32ade1fc19	0.27906481724488824
211	0x3fc43a24e3ab7fe9	0.1580244170827421
212	0xbfc067469ba4c105	-0.12815172767432884
213	0xbfc3e21e66d380d6	-0.15533809681711003
214	0xbfb207694f8d8674	-0.07042558853347619
215	0xbf8dac528d94361e	-0.014488835282942477
216	0xbfd98c32dc9a32be	-0.3991820482558913
217	0xbfce017fac22344c	-0.2344207373138566
218	0xbfc14e335e146adb	-0.13519899457681714
219	0x3fc22b355a51fa64	0.14194361601035432
220	0x3fbf5ce47c6fe3be	0.12251117742552162
221	0xbfbf20076ac514c6	-0.12158247334180591
222	0xbfc5a3c0ec41db46	-0.1690598634338249
223	0xbfccee412e131550	-0.22602095365270225
224	0xbfc74d0927ae550d	-0.18203844487712964
225	0xbfd1c7184e363219	-0.27777679097997204
226	0xbfbdc56a29772ad3	-0.11629355919209709
227	0xbfb875f0f27274bf	-0.09554963988417152
228	0x3fc3eea4d63a656e	0.1557203336749739
229	0x3fd053d7c1b50d16	0.25511735836717386
230	0x3fb368260acf9214	0.07580793155609228
231	0x3f81bce427f88924	0.008661062688649475
232	0x3f8aeaa089962ba6	0.013142828177270815
233	0xbf8be3b3ddfa58b8	-0.013617902003982926
234	0xbfc4d4276c614f2c	-0.16272442619321603
235	0xbfc099d937b61b57	-0.12969508381157865
236	0x3fb2e9427256b378	0.0738717583796652
237	0x3fc61413ceca068e	0.17248771283270908
238	0x3f938e27b56175a8	0.01909696621475168
239	0xbfad68898c1d12d9	-0.05743818126078332
240	0xbf9803d759d30912	-0.023452153069919275
241	0xbf86c2b97df4bff8	-0.011113595157979703
242	0xbfb2ec8cc509d414	-0.07392196474559426
243	0x3fc8b9a6c84a953b	0.19316563396311345
244	0x3f5b477d40f738da	0.0016649935895319185
245	0xbfc38962e9653eff	-0.15263019939674646
246	0x3fb88b0798ac8f59	0.09587142445940113
247	0xbfda0946502ec7a1	-0.406816080382777
248	0x3fc0f07740420631	0.13233843457787622
249	0xbf9916056201a54c	-0.024498066050374676
250	0x3fb19dc9b54e83dd	0.06881390263016791
251	0xbfa4082e246b8a13	-0.039124910302934655
252	0x3fc0fb4118a43c83	0.13266767218781092
253	0xbf78ab2f3831a009	-0.006022629214477612
254	0xbfd05e2d2ec2b38a	-0.2557480770727173
255	0x3f910e08214d5950	0.01665508940944821
